model/model.pth (torch, 16787 bytes, 4 tensors)

linear1.weight f4 [256, 11]
00000000: dbe0 ce3e a414 a43e 3d71 443d a7f7 913e
00000010: e0f3 6c3d de88 393e 3350 073e 710d 383e
00000020: 5180 843e 773f ae3c b6cd ea3d d66e 9a3e
00000030: 0519 8d3e 6d03 93be 9ce1 e13d 8cc7 a7be
00000040: 7b72 8d3d 7fa7 8fbd ab54 c7be de2b 913e
00000050: f4b3 71be c7d1 7abd 0727 8cbe 0ea9 d53c
00000060: d897 a23d b60b be3e 2ae5 46be f9df 55be
00000070: 5807 39bc 808c 473e 3347 813d 9afe 3fbe
00000080: 5b89 d2be 108d 9e3e 8da9 063f 3ec9 96be
00000090: c2cc 233e 29f4 8cbc 0f72 89bd 4fe8 603d
000000a0: f4ef a1be b288 103e 2640 743e f900 43be
000000b0: 3d9b 843e 962d 89be 356a 403e af8e aabe
000000c0: a570 a4bc 562c 1bbd 5729 6e3e ee01 6f3e
000000d0: 2df7 2ebe c584 d2bd 34ca 003e 0c81 31be
000000e0: 525e d23e 762f 703d a697 0d3e 0b6d 613e
000000f0: dc17 203e 96ef 08be b48f e33d 04f8 99be
00000100: b8de 94bd 4a6b 98be 57e5 b73e cddb a83e
00000110: 3f86 2ebe 6e21 a1be 697e 64be 6792 7ebd
00000120: 1bcf e5bd f01f f23d 2a88 173c 0fd3 593d
00000130: c34a 2b3e 4f3a 053e 7b88 ed3e dd2d a3be
00000140: 3cf2 273e c6a2 4b3e c0d3 aebd 7aac 513e
00000150: 56dd 59be 4c38 9c3d 5675 303d 9a44 883e
00000160: 8810 b0be f08a 81be 8f65 1ebe 36d3 7fbd
00000170: eece 06be 1d2b 80be 2e8a 92bb b971 95be
00000180: 1597 2d3e e270 813d 99e6 32bd 8fed 913e
00000190: 1210 083e 7c7b e23e 94bf 843c 8676 4a3e
000001a0: 2036 20be 3ab3 763d 373b 53be 8047 2e3e
000001b0: 444a 7d3d 573a 64be 9bae 313b b409 93be
000001c0: abf7 563d 3cf6 683d 918c 863e a882 4838
000001d0: be51 7dbe a1bb 2c3e 4390 ecbd 3662 923c
000001e0: ec39 a33e 4d76 8abe 36e5 7e3c b3ae eabd
000001f0: 24be bdbc f453 69bd fe0b 8dbe 3bbd f93d
00000200: 3abe 623e 5272 31be ce46 4a3d 7fe2 06be
00000210: 3e1b eebb 1dc9 76be 1761 7fbd aaf3 e8bd
00000220: f9c2 a73d 21e6 593e b2c1 373e b1e9 25be
00000230: d323 833c 843b 83be dba9 a3be b726 90bd
00000240: 6359 7fbe 6278 9d3e 0434 2f3e 3bf8 903d
00000250: 8058 233e fa70 763c 0778 723e 520e cabe
00000260: 38e5 96be 7033 803d d570 90be 0d4b 1cbc
00000270: e866 28bd 329d 5abe e7ab 813e b0ba 213e
00000280: b408 293e e095 0fbe 1a7f d03d 3436 7f3e
00000290: 1683 1e3e 4b49 c83d 2973 74bc 9d2a a9bd
000002a0: 8d0f 643d 464f 033e 3e6f 263e a467 1fbe
000002b0: a1f6 a7bd 701d bf3d 6731 423d 36e9 453e
000002c0: 5ce0 b73e 0978 8ebd 3ac2 b53e 4259 73bd
000002d0: 8e61 bd3d dd98 0f3e b146 763d c46b 10be
000002e0: a07d 973b b080 64be 40c4 a73e a672 9d3e
000002f0: 85f2 8dbe d970 92be 7110 2bbe 5c9d 3d3c
00000300: fce0 a43e 5420 0b3e 419b 3fbd 2b86 81be
00000310: 427b 4b3e dcda 2a3e c49a 963d 69fb 9cbe
00000320: fb47 74be 23cc 59be 08ff 59bd 8d42 713e
00000330: 3dd1 a8bd 6a40 8fbe 6d41 e23b acb1 613e
00000340: c4d9 82be d080 b9bd 20b9 cebc 40e2 e53c
00000350: 184c b4bd 64b8 21be eaa4 0f3e 409f 56bd
00000360: 2b09 91be 308b c23c 8014 c33b 0095 333b
00000370: 5559 2abe 6a2a 7b3d 04b8 903e 425c 843e
00000380: 7ee1 913d 83cc 14be 6a7c efbd ab77 31be
00000390: 6f18 5ebe 9cbe 21be 65ed 3d3d 2b1e 643e
000003a0: bd3a 9abc 2b14 7fbe 8f99 0cbe 9fb0 54be
000003b0: 1404 fdbd b8c2 28be 2280 2d3c 4b89 9c3c
000003c0: 099e 92be f31c 9cbe 5e69 e9bd 6f12 533d
000003d0: fe4d a43e 1477 60be a046 80be 05dd 6f3c
000003e0: d036 f6bd 2539 973d c428 9b3e b220 6cbe
000003f0: e4f1 0a3e 5997 cfbe 990e a03d ac22 613d
0.40405926 0.32046998 0.047959555 0.28509256 0.057849765 0.18118617 0.13214187 0.17973877
0.25879148 0.021270497 0.114650175 0.30162686 0.2755815 -0.2871355 0.1102936 -0.3276943
0.06906601 -0.07014369 -0.38931784 0.2835378 -0.23603803 -0.061235216 -0.27373526 0.026081588
0.07939118 0.3711831 -0.19423357 -0.2088622 -0.011293255 0.1948719 0.06312408 -0.18749467
-0.4112042 0.30966997 0.52602464 -0.2945041 0.15996078 -0.017206268 -0.06711208 0.054909047
-0.31628382 0.14114645 0.23852596 -0.1904334 0.25899687 -0.26792592 0.18790515 -0.33311984
-0.020073244 -0.03788408 0.23257957 0.2334058 -0.17086478 -0.1027923 0.12577134 -0.17334384
0.41087586 0.058639012 0.1382738 0.22014253 0.15634102 -0.13372645 0.111113936 -0.30072033
-0.07269043 -0.29769355 0.3591716 0.32980195 -0.17043398 -0.31470817 -0.22313847 -0.06215134
-0.11221143 0.11822498 0.009248773 0.053179797 0.16727738 0.13010524 0.4639319 -0.31870928
0.16400999 0.19886312 -0.08536482 0.20475951 -0.21275839 0.07627925 0.04308065 0.2661484
-0.34387612 -0.25301313 -0.15468429 -0.062457286 -0.13164875 -0.25032893 -0.0044720387 -0.29188326
0.16952164 0.06320359 -0.043676946 0.28501555 0.1328738 0.44234836 0.016204633 0.19771776
-0.15645647 0.060229518 -0.20628057 0.17019463 0.061838403 -0.2228788 0.002711213 -0.2871834
0.05248229 0.056875452 0.2627912 4.78054e-05 -0.24738213 0.1686845 -0.11550953 0.017869096
0.31880128 -0.2704338 0.015557578 -0.114591025 -0.023161955 -0.05696483 -0.27548212 0.12194296
0.22142878 -0.17328766 0.04938393 -0.13172339 -0.007266431 -0.24100156 -0.06234845 -0.113746
0.08191485 0.21279193 0.17944983 -0.16202427 0.016008293 -0.25631344 -0.31965527 -0.07038634
-0.24936442 0.30755907 0.17109686 0.07078596 0.15951729 0.015041584 0.236786 -0.3946405
-0.29471755 0.06259811 -0.28211084 -0.009539378 -0.041113764 -0.21349028 0.25326464 0.15793872
0.16507226 -0.14022017 0.10180493 0.2492302 0.15479693 0.097796045 -0.014920034 -0.08260081
0.055678893 0.12823209 0.16253373 -0.1556688 -0.082013376 0.09331787 0.047410395 0.19327244
0.3591336 -0.06956489 0.35499746 -0.059411295 0.09247123 0.14023156 0.06012601 -0.1410361
0.00462313 -0.22314715 0.32766914 0.30751532 -0.2772409 -0.2860172 -0.1670549 0.011573162
0.322029 0.13586551 -0.04677892 -0.25297675 0.19871238 0.1668505 0.07353738 -0.3066056
-0.23855583 -0.21269278 -0.053221732 0.23560543 -0.08243034 -0.27978832 0.006904772 0.22040433
-0.25556767 -0.09057772 -0.025234759 0.028061986 -0.08803576 -0.15792996 0.14027753 -0.052397966
-0.28327307 0.02374801 0.0059533715 0.0027402043 -0.1663564 0.061319746 0.28265393 0.25851637
0.07123087 -0.1453114 -0.11693652 -0.17330806 -0.21689008 -0.15795368 0.046368975 0.22277133
-0.018826837 -0.24910037 -0.13730453 -0.207705 -0.123542935 -0.1648053 0.010589631 0.019108435
-0.28636196 -0.30490837 -0.1139705 0.05153125 0.32090753 -0.21920425 -0.25053883 0.0146400975
-0.120221734 0.07383946 0.3030454 -0.23059347 0.13568836 -0.40545157 0.07815284 0.054964706

linear1.bias f4 [256]
00000000: 7011 1cbe 1c31 7f3e 4aa9 dfbd 1f95 923e
00000010: b771 d33d b4dd 1a3d 35dd 503e 1ba4 6e3d
00000020: 7a4f 51be 8efa 7f3e a196 29be b415 babe
00000030: 6678 573e b486 c33d 42bb 82bc 3d3d b0be
00000040: 19dc 573e 390d 813e f8f7 65be 03a2 89be
00000050: 5bc0 273e b70d 5a3d e866 823e 3dd4 703e
00000060: 16ef 31be 1645 64be 5b94 dc3d 6fbe 493e
00000070: e378 213d f14a 8fbe a046 213d d2ce a6be
00000080: cad0 77be 16fb 1bbe 9e53 26bd 44b0 bc3d
00000090: 201d 5a3e fc52 013e b6c4 d63c c98c 3e3e
000000a0: 81f0 6a3e 212b 8a3e 0629 f03d 5937 acbc
000000b0: dcbb cdbd a219 393e d231 6bbe bb93 a6bd
000000c0: 3326 233d e82f 033e 9ff2 ee3d 7a69 1f3e
000000d0: a05e 1e3e f072 a3bc 0461 483e b9ad 8abc
000000e0: 6f14 3dbc fd8d 8b3d e619 3ebe 2ddf c3bd
000000f0: 7568 4cbe 28c5 dfbd 91b3 a13e 18fd 97bd
00000100: c142 733e b08c ac3e 0ee6 74bd 2ad2 b9be
00000110: a6f2 09bd ceab 82be b7e4 2f3c 6e8c 9e3d
00000120: 9bbf 5b3d 1e89 8e3e 443b 863e 5194 6c3d
00000130: 6baa 97be 4087 fcbc afc4 a6bd 3c8c a93d
00000140: 86f6 9f3d f6ae 0abe 0220 b0bd 3bb8 7b3d
00000150: 9cec ad3d c229 953d c9a1 6c3e 5eeb 13be
00000160: 0ac7 df3c 33ea 5f3e 3d65 4ebe be1d 0bbd
00000170: 697f ecbd c577 b73c 8eb8 2dbe 71de 0d3e
00000180: b581 583e 39d8 77be cf0c 9f3e 9e10 553e
00000190: 9503 7e3e 373e 02be dffd c03d 6ad2 3abe
000001a0: 5e3c 3dbe 456a 643e 38d7 923d db10 50be
000001b0: b51f ee3b 62f9 9abe 337a 093e 4766 0e3e
000001c0: 3204 a83e b368 72be e430 42be 011a 61be
000001d0: 8c7a a1be 1029 e83d a826 753e f551 213e
000001e0: 69b0 c03c 4247 803e 0d8d 65be 137a 5cbe
000001f0: 1997 a1bd 3918 23be 47f2 3abd d6ba 0d3d
00000200: 41ed af3e f758 9c3e 8f6a fdbd 2f11 14be
00000210: 8280 d33c c555 47bc a7d2 b1bd adc2 6f3e
00000220: 4a30 d33e 1874 053e 7f17 373e 1b2d 34be
00000230: 6358 253e 09f9 563e 8a42 083d 5783 25be
00000240: 7420 a23e f23a 29be cc4d 3abd 7f82 553e
00000250: 8fa1 983d e647 82be 17b0 18bc 2b94 89be
00000260: bc73 45bd 904d fb3d c250 b63d 6a83 033e
00000270: 7007 79be 5fab 83bd 684d 81bd 7038 7c3d
00000280: 13e6 17bd 4978 523e aed1 6d3e 2932 5cbe
00000290: bf53 07bc 412e 7e3e d66b b83e 4f56 623e
000002a0: 94af 14be 6db2 3cbd d535 713e 8e0a cd3d
000002b0: d7b5 62be 7a25 f03d 9f8d 1cbd a54d 163e
000002c0: 9705 8fbe 56e5 4b3e 582b d03e 4a42 aa3e
000002d0: 56fb 8c3e 83c9 623e a141 963e f547 333e
000002e0: 7f78 14be e5f2 0d3e 8371 b8bc 3a7b 48be
000002f0: 8da6 cdbb 75f9 29be 7432 5d3e 638e 943e
00000300: 29bf 223d 93e3 983e 974a 4f3e 2c43 dbbd
00000310: 2b83 c33e ed88 17be dcd4 933e 2b3a a23e
00000320: 4c76 323e 7f2b a03e dd58 29bd 480b de3d
00000330: 2f47 7bbe f267 17be a0aa 44be 6520 913e
00000340: 1821 153e 12e5 4abd 0183 ac3c 2db0 01be
00000350: 79d9 423e db60 833d 18e1 64be 8321 08be
00000360: 5ce4 10bc d6a3 7bbe 82fa 24be 4c55 323e
00000370: 3154 1fbb 4b91 013e 45d7 12be 8a55 783b
00000380: 1e6b 763e 96ac a63d c274 81be ecb8 02be
00000390: 1624 593e 6dd9 8cbe 6877 6a3b 20ea 02bc
000003a0: 5dc9 643e 17ac 01bc bafa 1f3e 80a7 ebbd
000003b0: fe2e 6bbe 11f0 50be 1a01 bebd 85c4 0ebd
000003c0: f567 a5bd 6b99 e83d 2278 8bbe c9d7 9b3d
000003d0: 1077 763e 64b9 90be f74c 823e b3a2 6a3e
000003e0: 98e4 39be e29b 9a3d 727b ff3c 3d83 e9bd
000003f0: b65a 8c3e 6773 87bd 61dd c23d 9723 833e
-0.15241027 0.24921077 -0.10920961 0.28629395 0.10324424 0.03780909 0.20396884 0.058261972
-0.20440474 0.24997923 -0.16561367 -0.36344683 0.21042022 0.09547177 -0.015958432 -0.3442172
0.21080054 0.252054 -0.22457874 -0.26881418 0.16381972 0.053235736 0.25469136 0.23518462
-0.1737636 -0.22291979 0.10770484 0.19701551 0.039421927 -0.27986863 0.039373994 -0.32579666
-0.2420074 -0.152325 -0.040607087 0.092133075 0.21300173 0.12629312 0.026216846 0.18608393
0.22943307 0.2698603 0.117265746 -0.021022486 -0.10045597 0.18076184 -0.22968224 -0.08133646
0.03983135 0.12811244 0.1166737 0.1556758 0.15465784 -0.019952267 0.19568259 -0.01692854
-0.011540516 0.068141915 -0.18564567 -0.09564052 -0.19961722 -0.109262764 0.3158231 -0.07421321
0.23755933 0.33701086 -0.05978971 -0.36293155 -0.033678673 -0.25521702 0.010735682 0.077416286
0.053649526 0.27838987 0.2621709 0.057758633 -0.29622206 -0.030826211 -0.08142983 0.08278701
0.078106925 -0.13543305 -0.08599855 0.061454993 0.08492395 0.07283355 0.23108591 -0.14445254
0.027316589 0.21866684 -0.20155807 -0.03396391 -0.11547739 0.022395978 -0.16964933 0.13854386
0.2114323 -0.24203576 0.3106446 0.2080712 0.24806054 -0.12719046 0.09423422 -0.18244329
-0.1848006 0.22306164 0.07169956 -0.2031893 0.0072669634 -0.3026839 0.13425522 0.13906203
0.328157 -0.23672752 -0.18963963 -0.21982576 -0.31538808 0.11335957 0.23940527 0.1575392
0.023521619 0.25054365 -0.22417088 -0.21530943 -0.07890148 -0.15927209 -0.04564121 0.03460201
0.34360698 0.30536625 -0.1237384 -0.1445968 0.025818113 -0.012166445 -0.08682757 0.23414107
0.4124778 0.13032568 0.17880057 -0.17595331 0.16146998 0.20993437 0.03326658 -0.16163383
0.31665385 -0.16526392 -0.04548435 0.20850562 0.0745269 -0.2544548 -0.009319327 -0.26870856
-0.048206076 0.12270653 0.08902122 0.12843099 -0.24319243 -0.06429171 -0.06313592 0.06157726
-0.03708465 0.20553698 0.23224518 -0.2150351 -0.008259713 0.24822332 0.36019772 0.22103237
-0.14520103 -0.046068598 0.23555692 0.10011779 -0.22139679 0.11725898 -0.038220998 0.14678057
-0.27933952 0.19911703 0.4065807 0.332537 0.27535504 0.22147183 0.29346946 0.17507918
-0.1449909 0.13862188 -0.022515064 -0.19578257 -0.006275958 -0.16599067 0.21601278 0.29014882
0.039733086 0.29861125 0.20243298 -0.107061714 0.3818601 -0.14798327 0.28873336 0.31685004
0.17427939 0.31283185 -0.041344512 0.108419955 -0.24538873 -0.14785746 -0.19205713 0.28345028
0.14563406 -0.049534865 0.021058561 -0.12664862 0.19028272 0.06414958 -0.22351491 -0.13294034
-0.008843508 -0.24574217 -0.16111186 0.1741535 -0.0024311657 0.12653081 -0.14339931 0.0037892782
0.240643 0.08138387 -0.25284392 -0.12765855 0.21205172 -0.27509633 0.0035776738 -0.00799039
0.22342439 -0.007914565 0.15622988 -0.115065575 -0.22967145 -0.20404078 -0.09277554 -0.034855384
-0.08076469 0.11357387 -0.27240092 0.07609517 0.24068856 -0.28266442 0.25449345 0.22913627
-0.18153608 0.075492635 0.031186793 -0.11401985 0.27412957 -0.06613808 0.09514881 0.2561309

linear2.weight f4 [3, 256]
00000000: 7eb0 0fbe f3cc bbbd 4ea0 363e d0f0 92bd
00000010: 243b e7bd 8782 fd3d dd3f c4bd 06ae 84bd
00000020: 889d b6bc 52de 45bd 3040 4dbe 1ae5 903c
00000030: ed91 05be 638a 183d 8234 813d ed94 8a3a
00000040: 0aa5 e3bd cba4 11be 8a32 533d c2b7 1dbd
00000050: 57fc 133c 3703 b9bc e416 abbc da61 b63d
00000060: 577a 383e 4dc8 dfbd 883c 1cbd d5fe 9c3b
00000070: c2ba 6fbd 3b46 823d 713b 6e3d f2ba a6bb
00000080: 63d9 9b3d 8723 953d 02f8 1cbe fe1a b83d
00000090: ff22 b4bd 0fa0 37bd 7aee 85bd 8142 97bd
000000a0: 6eb1 8dbd ea71 223e b962 01ba ad20 543d
000000b0: 98e4 5abd c744 92bd d9fc f5bc 6548 cebd
000000c0: 5d91 a93b b318 a73d 9db1 54bc 7718 b9bd
000000d0: 1512 ddbd b1ee 34bc 5585 b1bd 1285 0d3e
000000e0: 5224 82bc 3581 3e3d be30 abbd da3c 9f3c
000000f0: 5f1f 16be ac4c cbbc 269f 9ebd de32 2f3d
00000100: 77ff b1bd d65b 273b a422 17be 48e9 1b3d
00000110: e4ba 683c 28b9 873c e842 03be 1fb4 a3bc
00000120: 2063 21be 843e 7dbc 1179 c3bd 9733 883d
00000130: 9e10 423d 4d13 d23d be47 e1bd 6fcc 563d
00000140: 0b2c 0fbd d731 2cbe 33fe 983d f324 c1bd
00000150: 5e3e 48bc 5387 373d c05b 35bd 7e54 eebc
00000160: da43 1ebd 8eee fc3d 54a3 1abd bc4c 04be
00000170: c603 e5bd 0112 f4bd 71f3 663d a125 9bbb
00000180: 9fe8 c5bd 4d1b cf3c 3094 18bd 9dad 4abd
00000190: 5b84 a93c 6d16 cfbd a642 df3c 23d7 38bd
000001a0: 0ff8 953d 8e46 4bbe e90b 073e a816 f7bc
000001b0: aea6 9c3d bd6e 883c e6e3 673c e84e 95bc
000001c0: 8e9d 4bbd 0335 e43d 3ec6 0c3d b1bf 1a3c
000001d0: a10e 5f3c 356f 9fbd 60b6 c2bd 4060 10bc
000001e0: b27a 13be 7645 ecbd 67af 133e c50f 993d
000001f0: 32f2 7f3b 23c3 a2bc a751 583e a5cd 843a
00000200: 47cf dfbd e676 1f3c 4ec5 c8bc 133c cb3d
00000210: f9d8 e2bd e2ed b23d 1f07 1bbe 9453 5cbe
00000220: 0a7f a9bd 5a93 9e3b ed9b f13b aec8 123e
00000230: 47a4 bfba 3255 1ebd ce51 bebd d4b8 9bbd
00000240: eba6 21ba 0d40 71be f172 933d cae4 5c3c
00000250: afa1 8ebd e244 f23d 76c9 373d 4aa1 cbbd
00000260: 4ac3 d6bd a7b5 65bc d260 19be 635a b93d
00000270: cb7f d93c a0e1 40bd e4fe 283c fd09 c93d
00000280: 4cdb 923d fcb9 0e3d d0ae e0bc 4969 673c
00000290: 417e be3d b697 c7bb 11c7 c43d 4791 88bb
000002a0: b504 51be d6fc ed3b 42d1 f8bb 694b 2cbd
000002b0: 2587 5a3c b97f db3c c2ef a0bd 0a2e 66bd
000002c0: e7cb 9e3d 913a 71bd 97e0 0cbe 155e 98bb
000002d0: 6ad1 97bd 1a1c 0bbe 9993 9abd 0556 b8bc
000002e0: b8e0 89bd 01e7 09bd b996 1ebe dd3d 34be
000002f0: c740 0ebe af10 9abd 8dbe bcbd 1586 cbbd
00000300: a129 af3c 4b70 04be 5520 253d c66f c6bc
00000310: 681f 42bc a51b 063e f478 e03b 6307 373c
00000320: a59d 87bd 31d7 0cbe de6e 19be 6694 8ebd
00000330: bdd0 873c b9a0 84bd 50af 07bd 785e 803d
00000340: 1c67 04bc 599d b23d fce1 6abe cedc 803d
00000350: 6eb8 09be 49c9 00bd 43f2 e23d a175 1dbd
00000360: a193 e8bc 02fa 00be 6fc9 eb3c 96c3 69bd
00000370: e07a 23be c113 b4bc eede a0bd c3cb bcbd
00000380: 91f6 a6bd ab4d c5bd 4acd 1fbc 2148 f53d
00000390: 35b6 1dbd ff00 553c d4e8 a8bd 48fd 743b
000003a0: 4e7f 80bd 1175 0abe 3c64 d2bd a4ea f5bd
000003b0: 027d 16bd e869 9ebc 1426 40bc 36e7 253d
000003c0: bf09 40be 24ab aa3c 8a46 043c 24a6 a9bd
000003d0: 9b10 0ebe a41c e0bc 1b72 1abe 6c40 05bd
000003e0: cce6 2fbd a8e5 59be 2507 53be f5ae a4bd
000003f0: df61 cd3d b2f0 2a3c 6a6e 503d a226 35bd
-0.1403217 -0.0916995 0.17834589 -0.071748376 -0.11290577 0.12378412 -0.095824935 -0.06478505
-0.022291914 -0.048307724 -0.20044017 0.01768737 -0.13043948 0.03724135 0.06308843 0.0010572948
-0.11115463 -0.1422302 0.05156187 -0.038505323 0.0090323305 -0.02258454 -0.020884939 0.089053825
0.18015419 -0.10926876 -0.038143665 0.0047911205 -0.058527716 0.06361052 0.058162156 -0.0050882036
0.076098226 0.07282167 -0.15328982 0.08989523 -0.087957375 -0.04483038 -0.065396264 -0.073857315
-0.06918608 0.15863767 -0.00049356703 0.051788975 -0.05344066 -0.071420245 -0.030027794 -0.10072402
0.0051747994 0.08159008 -0.012981799 -0.090378694 -0.107944645 -0.011043237 -0.08668009 0.13820294
-0.01588646 0.04650994 -0.08358906 0.019438196 -0.14660405 -0.024816833 -0.07745199 0.04277312
-0.08691304 0.0025536916 -0.14759308 0.03806427 0.014204714 0.016567782 -0.12818491 -0.01998335
-0.1576047 -0.015456799 -0.09544576 0.06650465 0.04737913 0.102575876 -0.11000012 0.052441057
-0.034954112 -0.16815887 0.0747036 -0.09430876 -0.012221901 0.04480679 -0.044276953 -0.029093023
-0.038638927 0.12350188 -0.037753418 -0.12919897 -0.1118236 -0.119174965 0.056384508 -0.0047347103
-0.096635096 0.025281573 -0.037250698 -0.049481977 0.020692995 -0.10111699 0.02725346 -0.045127045
0.07322704 -0.19851133 0.13188137 -0.03016217 0.07648979 0.016654367 0.014153456 -0.018226102
-0.049710803 0.11142924 0.034368746 0.009445117 0.013614328 -0.07784883 -0.095074415 -0.00881201
-0.14402273 -0.11536686 0.1442238 0.07473711 0.0039054272 -0.019868439 0.21124898 0.0010132088
-0.10928207 0.009732937 -0.024508145 0.099235676 -0.110765405 0.08736779 -0.15139435 -0.21516258
-0.08276184 0.004839343 0.007373324 0.14334366 -0.0014621102 -0.038655467 -0.09292947 -0.076036125
-0.00061665353 -0.2355959 0.07199658 0.013482282 -0.069644324 0.118295446 0.044869862 -0.09942873
-0.10486467 -0.01402036 -0.1497834 0.09050443 0.026550194 -0.047090173 0.010314677 0.09816358
0.07170734 0.034845337 -0.027427107 0.014124223 0.09301425 -0.0060910834 0.096082814 -0.004167709
-0.20411952 0.0072628064 -0.007593305 -0.042064104 0.013337885 0.026794301 -0.0785823 -0.05619625
0.07753735 -0.058893744 -0.13757549 -0.0046498873 -0.074129894 -0.13584939 -0.07547683 -0.022501955
-0.06732315 -0.033667568 -0.15487184 -0.17601724 -0.13891898 -0.075227134 -0.09216032 -0.099376835
0.021382155 -0.12933461 0.040314037 -0.02422322 -0.011848308 0.13096483 0.0068503562 0.011171195
-0.06621865 -0.13753964 -0.14983699 -0.069618985 0.016579026 -0.06475968 -0.033126175 0.062680185
-0.008081224 0.08721418 -0.22937769 0.06292115 -0.1344926 -0.03144196 0.11081364 -0.038442258
-0.028390707 -0.1259537 0.028782574 -0.05707129 -0.15964842 -0.021982076 -0.078550205 -0.09218552
-0.081524976 -0.096339546 -0.009753535 0.11976648 -0.038503844 0.013000726 -0.082475334 0.0037382413
-0.062742814 -0.1352122 -0.102730244 -0.12007645 -0.03674031 -0.01933761 -0.0117278285 0.040503703
-0.18753718 0.02083356 0.008073458 -0.08283642 -0.13873522 -0.027357407 -0.1508259 -0.03253214
-0.042944714 -0.21279013 -0.20608194 -0.08041183 0.10028433 0.010433363 0.05088655 -0.044226296

linear2.bias f4 [3]
00000000: af73 c83a 8cc2 c4bd a62a 61bd
0.0015293265 -0.09607419 -0.054972313
